src/main/assets/IPLFINAL.tflite (tflite, 593004 bytes, 59 tensors)

sequential/dense/BiasAdd/ReadVariableOp/resource f4 [608]
0	0x3ed0d1c7	0.40785047
1	0x3ea95da1	0.33079246
2	0x3ec2de1d	0.38060084
3	0x00000000	0.0
4	0x3f87622b	1.0576833
5	0x3f67dcf0	0.905715
6	0x3f97523f	1.1821975
7	0x3f882926	1.0637558
8	0x3f922bf2	1.1419661
9	0x3c1b8a11	0.009493367
10	0x3ed43151	0.41443875
11	0x3c6e759e	0.014554409
12	0x3ebf2994	0.3733641
13	0xbf85a0be	-1.043968
14	0x3f95dbbb	1.1707681
15	0xbcace0c3	-0.021103268
16	0x3ed332e3	0.4124976
17	0x3f86c4e2	1.0528834
18	0xbc4d0d20	-0.012515336
19	0x00000000	0.0
20	0x3f6ea3a8	0.9321847
21	0x3ef4b85e	0.4779691
22	0x3ef12223	0.47096357
23	0x3e99af81	0.3001671
24	0x3eb5e741	0.35527995
25	0x3edc5a16	0.4303748
26	0x3f880722	1.0627177
27	0x3e56db7e	0.20982167
28	0x3e46622f	0.19373392
29	0x3eec781e	0.46185392
30	0xbe9ff4fa	-0.3124159
31	0x00000000	0.0
32	0x3ef4ad52	0.47788483
33	0x3ed9d655	0.42546335
34	0x3e43790b	0.19089143
35	0xbf89a01a	-1.0751984
36	0xbf8aab50	-1.083353
37	0x3ed118d4	0.40839255
38	0x00000000	0.0
39	0x3f884d97	1.0648679
40	0xbcac00cd	-0.020996476
41	0x3ef81e65	0.4846069
42	0x3ef5992f	0.47968432
43	0x3e8fbfc3	0.2807599
44	0x3ee716f3	0.45134696
45	0x3f276d3d	0.6540106
46	0x3e9c9867	0.30585024
47	0x3f5d67bd	0.8648642
48	0x3eef41a3	0.46729764
49	0x3e9a8e37	0.30186626
50	0x3f0e0429	0.554751
51	0x3f3c247f	0.7349319
52	0xbea676f0	-0.32512617
53	0x3e5373ff	0.20649718
54	0x3f8dff0e	1.1093462
55	0x3f7b0d08	0.9806676
56	0x3f47b143	0.78004855
57	0x00000000	0.0
58	0x3f6df4d7	0.9295172
59	0x3f2049c6	0.6261257
60	0x3f47e86a	0.7808901
61	0x3f36cbfc	0.71405005
62	0x00000000	0.0
63	0x3e9f663d	0.3113269
64	0x3e87df04	0.26537335
65	0x3eda1e2d	0.42601147
66	0xbc09744c	-0.008389544
67	0x3f5216bd	0.82065946
68	0x3f0f3c26	0.55951154
69	0x3e94477b	0.28960785
70	0x3f05db00	0.5228729
71	0x3f3af1b4	0.7302506
72	0x00000000	0.0
73	0x3f75a9ba	0.9596211
74	0x3ed45a83	0.41475305
75	0x3e5d1655	0.2159055
76	0xbf62e184	-0.8862536
77	0x3ee1e71d	0.44121638
78	0x00000000	0.0
79	0x3f36c091	0.71387583
80	0x3e4cdc46	0.20005903
81	0xbcc9d192	-0.024636064
82	0x3f5f8ea9	0.8732706
83	0x3f466020	0.77490425
84	0x3e143894	0.14474708
85	0x3f7d3b06	0.9891819
86	0xbc1b2b74	-0.009470809
87	0x3f830224	1.0235028
88	0x00000000	0.0
89	0x3f9875f6	1.1910999
90	0xbf6cf542	-0.92561734
91	0x3f8368cb	1.0266355
92	0x3f668cfd	0.9005888
93	0x3f3ac598	0.72957754
94	0x3f0628f2	0.5240623
95	0x3f498b4e	0.7872819
96	0x3f1568d4	0.5836308
97	0x3f96368c	1.1735396
98	0x3ef1b089	0.47204998
99	0x3edc03f8	0.42971778
100	0x3f701d19	0.937944
101	0x00000000	0.0
102	0x3edef2f1	0.43544725
103	0x3f51fea3	0.8202917
104	0xbc858759	-0.01629989
105	0x3f5a7cda	0.8534676
106	0x00000000	0.0
107	0x3f84299a	1.0325196
108	0x3f41cb5c	0.75700927
109	0x3ec664a3	0.38748655
110	0x3eb53473	0.35391578
111	0x3ed1b0fe	0.40955347
112	0x3e246326	0.16053447
113	0x3f17c17f	0.59279627
114	0x3f684463	0.9072935
115	0x3f6ebcea	0.9325701
116	0x3ede12c6	0.43373698
117	0x3f8702be	1.0547712
118	0x3ec07b06	0.3759386
119	0x3f99d9c4	1.2019582
120	0x3f3a771d	0.72838
121	0x3f54ff38	0.8320193
122	0x3f4fd346	0.8118175
123	0x3db295a1	0.08719946
124	0x3f552fd5	0.8327611
125	0xbf808d64	-1.0043149
126	0x3f2bdd88	0.67134905
127	0xbe40f064	-0.18841702
128	0x3f969e07	1.1766976
129	0x3efb7bcc	0.49117887
130	0x00000000	0.0
131	0x3e8154a2	0.25259882
132	0x3e1894c1	0.14900495
133	0xbd389dcb	-0.045072358
134	0xbc95ec18	-0.018301055
135	0x3f5135ab	0.81722516
136	0x3f497bb1	0.78704363
137	0xbf8de0a3	-1.1084179
138	0x3f417bc0	0.7557945
139	0x3f1f7c93	0.6229946
140	0x3ebf2778	0.373348
141	0x3ee6e770	0.45098448
142	0x3f56eb68	0.8395295
143	0xbec7cef9	-0.39025095
144	0x3f806986	1.0032203
145	0x3f88edf7	1.0697621
146	0xbc104e0e	-0.008807672
147	0xbf4aff90	-0.7929621
148	0x3f8f3613	1.1188377
149	0xbf86782a	-1.0505421
150	0x3d06eeed	0.0329427
151	0x3ebf0cc4	0.37314427
152	0x3ec27133	0.3797699
153	0x3f172641	0.59042746
154	0x3f42c586	0.76082647
155	0x3f955ce8	1.1668978
156	0xbd3d87f3	-0.04627223
157	0x3f3d20a7	0.7387795
158	0x3f71ca12	0.9444896
159	0x3f3e0f1b	0.742418
160	0x3f7c227f	0.98490137
161	0x3ee84bb2	0.4537025
162	0x3f40d7ec	0.7532947
163	0x3e4c2926	0.19937572
164	0x3f16a019	0.5883804
165	0xbceed3ac	-0.029153667
166	0xbb45bd8e	-0.0030172798
167	0x3f7e47ca	0.9932829
168	0x3f110196	0.56643045
169	0x3e839964	0.25702965
170	0x3e7befc8	0.24603188
171	0x3f3bc05e	0.73340404
172	0x3ed2478d	0.41070214
173	0xba09d767	-0.00052582327
174	0x00000000	0.0
175	0x3e74ab83	0.23893552
176	0x3f671a67	0.9027466
177	0x3ee2a167	0.44263765
178	0x00000000	0.0
179	0x3f85f154	1.0464272
180	0x3f077b09	0.5292211
181	0x3f7eee47	0.9958233
182	0x3f83a807	1.0285653
183	0x3f5d5a53	0.8646595
184	0x3f40182e	0.75036895
185	0x3f74b3b5	0.9558671
186	0x00000000	0.0
187	0x3f493ac2	0.7860528
188	0x3f4c2b87	0.7975392
189	0x3f01bb49	0.506764
190	0x3f544f45	0.82933456
191	0x3f399eff	0.72508234
192	0x3f91d245	1.1392294
193	0x3f3a8dae	0.72872436
194	0x3f5cd481	0.86261755
195	0xbe41b731	-0.18917538
196	0x3f5a0610	0.851655
197	0x3e82cad7	0.2554538
198	0x3e597998	0.2123779
199	0x3f8a381c	1.0798373
200	0xbd15815f	-0.03650033
201	0x3eae6888	0.34064126
202	0x3f927031	1.1440488
203	0x3f924ef4	1.1430345
204	0x3d5f6ad2	0.05454523
205	0x3ccea87e	0.025226828
206	0x00000000	0.0
207	0x3f78c84c	0.9718063
208	0x00000000	0.0
209	0x3e460b8c	0.19340342
210	0x3f37e136	0.7182802
211	0x3dfc4e6b	0.123196445
212	0x3f3ef62c	0.7459438
213	0x3f60cf16	0.8781599
214	0x3f33c990	0.70229435
215	0x3f7cfa17	0.98819107
216	0x3eca1dde	0.39475912
217	0x3f898d5c	1.0746264
218	0x00000000	0.0
219	0x00000000	0.0
220	0x3e453ab6	0.19260678
221	0x3e4d6f85	0.20062073
222	0x3e37d85c	0.17953628
223	0xbf6347bc	-0.8878133
224	0xbca0ce75	-0.019629696
225	0xbd3454f4	-0.04402633
226	0x3f95f40b	1.1715101
227	0x3e793a8c	0.2433874
228	0x3f4a9511	0.7913371
229	0x3f4f2be0	0.8092632
230	0x3ebad0ed	0.36487523
231	0x3eb4d32e	0.35317367
232	0x3f0b5183	0.5442125
233	0x00000000	0.0
234	0x3f86e315	1.053805
235	0x00000000	0.0
236	0xbf87f7d2	-1.0622504
237	0x3f580c76	0.84394014
238	0x3ebba2be	0.366476
239	0x3e9a94bd	0.30191603
240	0x3ecdc9b9	0.40192965
241	0x3c1aaa3d	0.009440002
242	0x3f031cd5	0.5121587
243	0x00000000	0.0
244	0x3ef267a3	0.47344694
245	0x3ee9a4b3	0.45633468
246	0x00000000	0.0
247	0xbc806e96	-0.015677731
248	0x3f03f6a1	0.515482
249	0x3c5a3322	0.013317855
250	0x3f655a86	0.8959125
251	0x3ef0a4e9	0.47000816
252	0xbef6b053	-0.481814
253	0x00000000	0.0
254	0x3f2fe60d	0.68710405
255	0x3f58d591	0.84700876

sequential/dense_1/BiasAdd/ReadVariableOp/resource f4 [224]
0	0xbd01ba97	-0.031672087
1	0x3f4e90f9	0.8068996
2	0xbbeaf95c	-0.0071708392
3	0xbd5db7a6	-0.05413022
4	0xbcf5e984	-0.030018575
5	0x3f5ace52	0.8547107
6	0x3f36659f	0.7124881
7	0x3f2f032d	0.6836422
8	0xbc50e7db	-0.012750591
9	0xbc13abd1	-0.009013132
10	0xbd069e67	-0.032865908
11	0x00000000	0.0
12	0xbd3c56ea	-0.045981325
13	0x3f6f31a3	0.93435115
14	0x3f4968d9	0.7867561
15	0x3f490b7e	0.7853316
16	0x3f47c9d7	0.7804236
17	0x3f4d69c2	0.802395
18	0xbd112386	-0.03543427
19	0x00000000	0.0
20	0xbcedffa9	-0.029052572
21	0x3d1dc885	0.03852131
22	0xbd01cc7a	-0.031689145
23	0xbd0dacdc	-0.03458868
24	0xbc13fe75	-0.009032835
25	0xbd098047	-0.0335696
26	0xbd14ec25	-0.036358017
27	0x3f4ae63f	0.7925758
28	0x3f641836	0.8909944
29	0xbcb69aa3	-0.022290533
30	0xbc93ac98	-0.018026635
31	0xbc57016a	-0.013122896
32	0x3f682e51	0.90695673
33	0x3f5ff5b1	0.8748427
34	0x3f00afe5	0.50268394
35	0xbd3b7338	-0.045764178
36	0x3ea43b4b	0.32076487
37	0xbd2a3128	-0.041550785
38	0x3f3da9e9	0.7408739
39	0xbcad3344	-0.02114261
40	0x3f7df941	0.99208456
41	0xbcea1f4f	-0.028579382
42	0x3eb6f67d	0.3573493
43	0x3f6d9568	0.928061
44	0x3f66cc08	0.90155077
45	0xbbffbf35	-0.007804776
46	0x3de89054	0.113556534
47	0x3df1302d	0.11776767
48	0xbc658c8e	-0.014010562
49	0xbd1f4816	-0.038887106
50	0x3f83e764	1.030499
51	0xbcd9aedd	-0.02657264
52	0xbcfc2c9d	-0.030782992
53	0xbb97bd83	-0.004630746
54	0xb993b1a1	-0.0002817037
55	0xbd2992fc	-0.04139994
56	0x3f59c5cc	0.8506744
57	0xbc883ce7	-0.016630603
58	0xbd017baf	-0.031612094
59	0xbd4d528c	-0.05012755
60	0xbcb9794b	-0.022640845
61	0xbcc03000	-0.023460388
62	0xbcad8585	-0.021181831
63	0xbcca414d	-0.024689341
64	0x3f5cc250	0.86234
65	0xbd01e350	-0.031710923
66	0x3f5d39e2	0.8641645
67	0x3f79319b	0.97341317
68	0xbc2a52ff	-0.010395764
69	0x3f38ce43	0.7218973
70	0xbd2d1501	-0.04225636
71	0xbd015c08	-0.03158191
72	0x3f3739dd	0.7157267
73	0xbdec0b27	-0.11525565
74	0x3ef745d4	0.48295462
75	0xbba1df2e	-0.004939935
76	0x3f3779a9	0.71670014
77	0xbd02f931	-0.03197593
78	0x3f34af36	0.7057985
79	0xbaf8307b	-0.0018935347
80	0xbd0fce53	-0.035108875
81	0xbceb2c9b	-0.028707793
82	0x3f6a08d3	0.91419715
83	0xbd1a24d4	-0.03763278
84	0x3f44cf06	0.7687839
85	0x3f5f15b7	0.8714251
86	0x3f372059	0.71533734
87	0xbd4acc82	-0.04951144
88	0x3f5c797a	0.8612286
89	0xbd6522c9	-0.055941377
90	0x00000000	0.0
91	0x3f7f4a3f	0.99722666
92	0xbc7b5d13	-0.015342015
93	0xbd1418a0	-0.036156297
94	0x3f831138	1.023963
95	0x3f59ba02	0.8504945
96	0xbd035483	-0.03206302
97	0xbd0828af	-0.033241924
98	0x3f5d17d3	0.8636448
99	0x3f73677b	0.95079774
100	0x3f3db07b	0.7409741
101	0x3f673064	0.90308213
102	0x3f669e63	0.9008543
103	0xbd358fa5	-0.044326443
104	0xbcfedfc2	-0.031112555
105	0xbd0eda8b	-0.034876388
106	0x3f365f4b	0.71239156
107	0x3f68b128	0.9089532
108	0x3f558e11	0.834199
109	0xbcc05fab	-0.023483118
110	0x3f6938c9	0.9110227
111	0xbd794cf5	-0.060864408
112	0x3f629187	0.8850331
113	0x3f6570c9	0.8962522
114	0xbd29bb65	-0.04143848
115	0xbaf70602	-0.0018846395
116	0xbcfd227b	-0.03090023
117	0xbce88826	-0.028385233
118	0x3f6e90d0	0.93189716
119	0xbcdbe39b	-0.02684193
120	0x3f2c85bb	0.67391557
121	0xbd2fb58f	-0.042897757
122	0x3f65c9f2	0.8976127
123	0x3f590b46	0.84782827
124	0xbce50f63	-0.027961439
125	0x3f86ccdd	1.0531269
126	0xbcad4047	-0.021148814
127	0x3f3b439f	0.73150057
128	0x3f5a09eb	0.85171384
129	0x3f47983f	0.77966684
130	0xbd243068	-0.040085226
131	0x3f51b9e0	0.8192425
132	0xbce781c2	-0.028260116
133	0x3f46fd23	0.77730006
134	0x3f5ea95b	0.86977166
135	0xbcfc8fa6	-0.030830216
136	0x3f3565f0	0.7085867
137	0xbc404212	-0.011734502
138	0x3f4ee1fe	0.80813587
139	0x3f828515	1.0196863
140	0xbd174813	-0.03693397
141	0xbd43ce5b	-0.047804218
142	0x3f5a441d	0.8526018
143	0xbd3df0de	-0.046372287
144	0x3efa8eef	0.48937175
145	0x3f815536	1.0104129
146	0x3f724032	0.94629204
147	0xbcc0b011	-0.023521455
148	0x3f52a9cb	0.82290334
149	0xbd01c6c0	-0.031683683
150	0xbcd1349b	-0.02553778
151	0x3f6ab07c	0.91675544
152	0xbd1ee4f2	-0.038792558
153	0x3d905f19	0.070493884
154	0x3f627e9d	0.88474447
155	0xbc88d259	-0.016701864
156	0xbc0a112c	-0.008426946
157	0x3f48f4db	0.7849862
158	0x3f67b712	0.9051372
159	0x3f5c38d5	0.8602422
160	0xbc91d07b	-0.017799607
161	0xbd88c1b0	-0.06677568
162	0xbca90c11	-0.020635637
163	0x3f58e450	0.8472338
164	0x3d9708c0	0.07374716
165	0x3f56e6b4	0.83945775
166	0x3f78b02b	0.9714381
167	0xbd503dd5	-0.050840218
168	0xbd58be71	-0.052915994
169	0x3f45f36b	0.7732455
170	0xbd16f192	-0.036851473
171	0xbd0f7829	-0.035026703
172	0xbd01ffdc	-0.031738147
173	0x3f402fc9	0.75072914
174	0xbcf72917	-0.03017096
175	0x3f7743e9	0.96588
176	0xbd001973	-0.03127427
177	0x3f3774b9	0.7166248
178	0xbcf406d5	-0.029788414
179	0x3f4a5e90	0.7905054
180	0x3ce1f3c5	0.027582059
181	0x3f6c2560	0.9224453
182	0x3f783a44	0.96963906
183	0x3f5f40cb	0.8720824
184	0x3ee91801	0.45526126
185	0xbca3301d	-0.019920403
186	0xbc1dcb80	-0.009631038
187	0xbd03f83f	-0.032219168
188	0x3e6b2d8b	0.22966592
189	0x3f45cf03	0.77269
190	0xbcc6fa08	-0.024289146
191	0x3f58f1aa	0.8474375
192	0xbd14d629	-0.03633705
193	0xbcd510ba	-0.026008952
194	0xbd3dd9a5	-0.04635014
195	0xbd65646d	-0.056003977
196	0xbd0142c7	-0.031557824
197	0xbd268fb0	-0.040664375
198	0xbd580e94	-0.052748278
199	0x3f60f123	0.87867945
200	0x3f3c0cc0	0.73456955
201	0xbd434573	-0.047673654
202	0xbd2b0679	-0.04175422
203	0xbd1c0ac5	-0.038096208
204	0x3c5c181b	0.013433482
205	0xbce7a776	-0.028278094
206	0xbc3d6542	-0.011559786
207	0x3f295560	0.66145897
208	0x3f510102	0.8164216
209	0xbc8d9715	-0.017283956
210	0xbca488f0	-0.020084828
211	0x3f5e1fff	0.8676757
212	0xbd2d7f64	-0.042357817
213	0xbced70a7	-0.02898438
214	0xbcc02934	-0.023457147
215	0x3eff84d2	0.4990602
216	0xbd6a4b1d	-0.05720054
217	0xbc91fef9	-0.017821776
218	0x378544ac	1.5886813e-05
219	0x3f7a7e8e	0.9784936
220	0xbd05ebeb	-0.032695692
221	0xbd4842bc	-0.048891768
222	0xbcb04465	-0.021516988
223	0x3f3c957b	0.7366559

sequential/dense_10/BiasAdd/ReadVariableOp/resource f4 [10]
0	0x3f67a2ae	0.90482605
1	0x3f6e4b87	0.93083996
2	0xbd7fa548	-0.062413484
3	0x3dd32329	0.10309441
4	0xbc2fbd09	-0.010726222
5	0xbe477851	-0.19479491
6	0x3f405c84	0.7514117
7	0x3cf2a353	0.029618895
8	0x3f5e4ecf	0.86839
9	0xbdd8ef5d	-0.1059253

sequential/dense_11/BiasAdd/ReadVariableOp/resource f4 [10]
0	0x00000000	0.0
1	0x00000000	0.0
2	0x3f6678bc	0.90027976
3	0x00000000	0.0
4	0x3ea0829f	0.31349656
5	0x3d49ffe0	0.049316287
6	0xbe02c8c2	-0.12771896
7	0x3f709172	0.9397193
8	0xbdf214bb	-0.1182036
9	0x3f71e548	0.9449048

sequential/dense_12/BiasAdd/ReadVariableOp/resource f4 [10]
0	0x3f8eddc3	1.1161426
1	0xbdf93309	-0.12167937
2	0x00000000	0.0
3	0xbdb1cd83	-0.086817764
4	0x3f6e4dc8	0.93087435
5	0xbf94802b	-1.1601614
6	0x3f771924	0.96522737
7	0x3f84e56f	1.0382518
8	0x3e3ccc1e	0.1843724
9	0x3f83c66e	1.0294931

sequential/dense_13/BiasAdd/ReadVariableOp/resource f4 [10]
0	0x3eae6344	0.3406011
1	0x3f7a5a09	0.9779363
2	0xbde18cb2	-0.110131636
3	0x00000000	0.0
4	0x3f63a700	0.88926697
5	0xbdaf3b1a	-0.085561946
6	0xbe00a3cd	-0.12562485
7	0x00000000	0.0
8	0x00000000	0.0
9	0xbd7b1de1	-0.06130779

sequential/dense_14/BiasAdd/ReadVariableOp/resource f4 [10]
0	0x3f69883d	0.9122351
1	0x3f8370b8	1.0268774
2	0xbf7676f8	-0.9627528
3	0x3e866d70	0.2625537
4	0xbcf3dc2f	-0.029768078
5	0x00000000	0.0
6	0x3f7d98de	0.9906138
7	0x3f6db05b	0.9284722
8	0x3f75b074	0.9597237
9	0xba541dc0	-0.00080915913

sequential/dense_15/BiasAdd/ReadVariableOp/resource f4 [10]
0	0x00000000	0.0
1	0xbe355c88	-0.17711079
2	0x00000000	0.0
3	0x3f78b09c	0.97144485
4	0xbe5e8d76	-0.2173365
5	0xbe154f71	-0.14581086
6	0x3cb1a4be	0.021685
7	0x3f8110aa	1.008321
8	0x00000000	0.0
9	0x3f6be589	0.9214712

sequential/dense_16/BiasAdd/ReadVariableOp/resource f4 [10]
0	0x3f804e8d	1.0023972
1	0xbd0218fc	-0.03176211
2	0xbe0560be	-0.13025185
3	0x3f7fe511	0.999589
4	0x00000000	0.0
5	0x3f7f6fe3	0.997801
6	0xbccbca15	-0.024876634
7	0x3f82c60a	1.0216687
8	0x3f77bdb3	0.96773833
9	0x00000000	0.0

sequential/dense_17/BiasAdd/ReadVariableOp/resource f4 [10]
0	0x00000000	0.0
1	0xbf874cae	-1.0570276
2	0x3f83bdba	1.0292275
3	0xbd2b8a5f	-0.041880008
4	0x3f75d79c	0.9603212
5	0xbf835ae1	-1.0262109
6	0x3d8afe1c	0.06786749
7	0x3f82f52b	1.0231069
8	0x3d6ae64a	0.057348527
9	0x3f400bba	0.75017893

sequential/dense_18/BiasAdd/ReadVariableOp/resource f4 [10]
0	0x3f82b3ff	1.021118
1	0x00000000	0.0
2	0xbddce94e	-0.10786687
3	0x3f8211d5	1.0161692
4	0x3aff045d	0.0019456256
5	0x3f85e4c3	1.0460438
6	0x3f72b9e5	0.948149
7	0xbc86e2b0	-0.016465515
8	0xbdcfa489	-0.101388045
9	0x00000000	0.0

sequential/dense_19/BiasAdd/ReadVariableOp/resource f4 [10]
0	0x00000000	0.0
1	0x3f8550f1	1.0415326
2	0x3f7f2b50	0.99675465
3	0xbdd5ae16	-0.10433595
4	0x3f8503db	1.0391802
5	0x3f84e383	1.0381931
6	0x00000000	0.0
7	0xbdc47688	-0.095929205
8	0x3c2e42b5	0.010636021
9	0x00000000	0.0

sequential/dense_2/BiasAdd/ReadVariableOp/resource f4 [10]
0	0x3f60273d	0.8755987
1	0x3f6774b4	0.9041245
2	0xbdd478a6	-0.10374574
3	0x3f74f490	0.9568567
4	0x3c27f3cc	0.010250997
5	0x3f6c532f	0.9231443
6	0x3f5aa1ec	0.85403323
7	0x3de14449	0.109993525
8	0xbd610984	-0.054940715
9	0x3d4545ef	0.048162397

sequential/dense_20/BiasAdd/ReadVariableOp/resource f4 [10]
0	0xbc4ee764	-0.01262841
1	0x3f862aa5	1.0481764
2	0x3f85d039	1.045417
3	0x3f865baa	1.0496724
4	0x00000000	0.0
5	0x00000000	0.0
6	0x3f8602b7	1.0469579
7	0xbdc1b6a6	-0.094586655
8	0x3f85cea1	1.0453683
9	0x3f02503f	0.50903696

sequential/dense_21/BiasAdd/ReadVariableOp/resource f4 [10]
0	0x00000000	0.0
1	0x00000000	0.0
2	0x3f822995	1.016894
3	0x00000000	0.0
4	0x00000000	0.0
5	0x00000000	0.0
6	0x3f873ada	1.0564835
7	0x3f83de7c	1.0302272
8	0x00000000	0.0
9	0x00000000	0.0

sequential/dense_22/BiasAdd/ReadVariableOp/resource f4 [10]
0	0x3f85bd00	1.0448303
1	0x3f84926b	1.0357183
2	0x00000000	0.0
3	0x3f8587a8	1.0432024
4	0x3f7d1204	0.98855615
5	0x00000000	0.0
6	0x00000000	0.0
7	0x00000000	0.0
8	0x00000000	0.0
9	0x3f84a152	1.0361731

sequential/dense_23/BiasAdd/ReadVariableOp/resource f4 [10]
0	0x3f861ba0	1.047718
1	0x3f86313c	1.0483775
2	0x3f862040	1.0478592
3	0x00000000	0.0
4	0x00000000	0.0
5	0x3f84ec34	1.0384583
6	0x00000000	0.0
7	0xbe157faa	-0.14599481
8	0x3f862c4f	1.0482272
9	0x00000000	0.0

sequential/dense_24/BiasAdd/ReadVariableOp/resource f4 [10]
0	0x00000000	0.0
1	0x3f856a02	1.0422976
2	0xbd24954e	-0.04018145
3	0x00000000	0.0
4	0x3f858d24	1.0433698
5	0xbbc4b9a6	-0.0060035763
6	0x3f79db9a	0.9760071
7	0x3f85484b	1.0412687
8	0x3f875f40	1.0575943
9	0x3f7f570a	0.99742186

sequential/dense_25/BiasAdd/ReadVariableOp/resource f4 [10]
0	0x00000000	0.0
1	0x3c201d2d	0.009772581
2	0xbd3e00b3	-0.046387386
3	0xbbc4bf0a	-0.006004219
4	0x3f78904d	0.97095186
5	0xbf033023	-0.51245326
6	0x00000000	0.0
7	0x3f874efa	1.0570977
8	0x00000000	0.0
9	0x3f7488d0	0.9552126

sequential/dense_26/BiasAdd/ReadVariableOp/resource f4 [10]
0	0x3f84fedc	1.0390277
1	0xbbc4c203	-0.0060045733
2	0xbf207a5f	-0.62686723
3	0x3f8413bd	1.0318524
4	0x3f86d76c	1.0534492
5	0x00000000	0.0
6	0x3f7fd6d9	0.99937207
7	0x00000000	0.0
8	0xbf6119d6	-0.8793005
9	0x00000000	0.0

sequential/dense_27/BiasAdd/ReadVariableOp/resource f4 [10]
0	0x00000000	0.0
1	0x00000000	0.0
2	0x00000000	0.0
3	0x3f7fbf15	0.99900943
4	0x3f7c46bf	0.9854545
5	0x3f80b0ea	1.005399
6	0xbc34c324	-0.011032853
7	0x3f8300d6	1.023463
8	0x3f810658	1.0080061
9	0x3f805015	1.0024439

sequential/dense_28/BiasAdd/ReadVariableOp/resource f4 [10]
0	0x3f78f91e	0.9725512
1	0x3f7e46d7	0.99326843
2	0xbbc4c93e	-0.0060054353
3	0xbcfb5f87	-0.0306852
4	0x3f784c33	0.9699127
5	0x3f7e45cb	0.99325246
6	0xbcbd9d84	-0.023146398
7	0x00000000	0.0
8	0x00000000	0.0
9	0xbe26a6d6	-0.1627458

sequential/dense_3/BiasAdd/ReadVariableOp/resource f4 [10]
0	0xbf84a06b	-1.0361456
1	0xbcf3dd2a	-0.029768545
2	0x3f4b3007	0.7937016
3	0x3f3affe3	0.730467
4	0xbe1bad8b	-0.1520292
5	0x3eadf4f9	0.33975962
6	0x3ea3d6f3	0.3199993
7	0x3f73c577	0.9522318
8	0x3f73a4bf	0.9517326
9	0x3f85eb28	1.0462389

sequential/dense_4/BiasAdd/ReadVariableOp/resource f4 [10]
0	0x3e92e473	0.28689918
1	0xbd5534c7	-0.052052286
2	0x3f57752d	0.8416317
3	0x00000000	0.0
4	0xbd88d998	-0.06682128
5	0x3f4ec337	0.80766624
6	0x3f500e0a	0.8127142
7	0xbca4014d	-0.020020152
8	0x3eb5f9c0	0.35542107
9	0x3f4fce3f	0.8117408

sequential/dense_5/BiasAdd/ReadVariableOp/resource f4 [10]
0	0x3f56d828	0.8392358
1	0x00000000	0.0
2	0xbdb99f7f	-0.090636246
3	0x3d5f11bf	0.054460283
4	0x3f77075c	0.96495605
5	0x3f559b93	0.8344051
6	0x3f48eec8	0.7848935
7	0x3f637bdf	0.8886089
8	0x3f4590a4	0.7717383
9	0xbf654399	-0.8955627

sequential/dense_6/BiasAdd/ReadVariableOp/resource f4 [10]
0	0xbcef78cb	-0.029232403
1	0xbdc556bd	-0.09635685
2	0x3f4ae9c2	0.79262936
3	0x3ea9087d	0.3301429
4	0xbdf1eb5c	-0.11812469
5	0xbddfd3d2	-0.109290734
6	0xbd02fc33	-0.031978797
7	0x00000000	0.0
8	0x3e09232a	0.1339232
9	0x3c7c017b	0.015381212

sequential/dense_7/BiasAdd/ReadVariableOp/resource f4 [10]
0	0x3f487b8b	0.7831351
1	0x3f5685de	0.83798015
2	0x3f535f4c	0.82567286
3	0x3f3adafc	0.72990394
4	0x3f8a594a	1.0808499
5	0x3f75681c	0.95861983
6	0x3f237a91	0.63858896
7	0x00000000	0.0
8	0x3bcf474c	0.006325638
9	0x3e281ca2	0.16417173

sequential/dense_8/BiasAdd/ReadVariableOp/resource f4 [10]
0	0x3f657e0a	0.89645445
1	0xbe469dc1	-0.19396116
2	0xbd81b937	-0.06334155
3	0x3f5a2e00	0.8522644
4	0x3e09e6c8	0.13466942
5	0x3f680299	0.90628964
6	0x00000000	0.0
7	0xbd021079	-0.03175399
8	0x3e475c3c	0.19468778
9	0x3f5024dc	0.8130624

sequential/dense_9/BiasAdd/ReadVariableOp/resource f4 [10]
0	0xbd2105dc	-0.03931223
1	0x3f6eb8b9	0.93250614
2	0x3f6728d8	0.902967
3	0x3f4c64cd	0.7984131
4	0xbed42e1c	-0.4144143
5	0x3e1860b0	0.14880633
6	0x3f6d97a1	0.9280949
7	0x3f663788	0.89928484
8	0x00000000	0.0
9	0x3d26fcbd	0.040768374

sequential/dense/MatMul f4 [608, 5]
0	0xbbd19fec	-0.006397238
1	0xbdb77dfa	-0.08959575
2	0xbe6f7536	-0.23384556
3	0xbd87ae49	-0.06625039
4	0xbe5ef309	-0.21772398
5	0xbdf0a249	-0.117497034
6	0xbe9f23fe	-0.31082147
7	0xbe346464	-0.17616421
8	0x3c9d06e5	0.019168327
9	0x3c1ff4ca	0.009762952
10	0xbd90a74d	-0.0706316
11	0xbe1dcc00	-0.15409851
12	0xbe899935	-0.268747
13	0xbdc28397	-0.09497755
14	0xbdc202af	-0.09473168
15	0xbd9fcc70	-0.07802665
16	0xbd1a7f85	-0.03771927
17	0xbda1b40f	-0.078956716
18	0xbdbdf195	-0.09274594
19	0xbcb02288	-0.02150084
20	0x3b9d2a4d	0.0047963024
21	0xbcf6053a	-0.03003179
22	0xbe8f6199	-0.2800415
23	0x3db8fb32	0.09032287
24	0x3e0b45c4	0.13600832
25	0x3c9fe8f1	0.019520255
26	0xbc55ef67	-0.013057566
27	0xbe93085a	-0.2871731
28	0x3cf250f1	0.029579611
29	0x3d00e938	0.031472415
30	0x3b99d36b	0.0046943924
31	0xbe04de12	-0.12975338
32	0xbde3ab5d	-0.11116669
33	0x3c97ff40	0.01855433
34	0xbe69d419	-0.22834815
35	0xba86adc2	-0.0010275173
36	0xbe4d32eb	-0.20038955
37	0xbe537e75	-0.20653708
38	0x3d87ebbd	0.066367604
39	0x3e402de1	0.18767501
40	0x3d0f384a	0.03496579
41	0xbdcfb603	-0.10142138
42	0xbe369fa3	-0.17834334
43	0xbc195db9	-0.009360724
44	0x3dcb48c2	0.09925987
45	0xbc7200d7	-0.014770708
46	0xbdc8a402	-0.09796907
47	0xbdc7bac8	-0.097524226
48	0xbd60c952	-0.054879494
49	0xbd920a42	-0.07130863
50	0xbc831edf	-0.016005931
51	0x3a801af5	0.0009773659
52	0xbddc51c9	-0.10757787
53	0xbd8a7387	-0.06760316
54	0x3d81d1e3	0.06338861
55	0xbe32bd41	-0.17455007
56	0xbdee5fd5	-0.11639372
57	0xbe1dc3e0	-0.15406752
58	0x3d7c357a	0.061574437
59	0xbd9d3dca	-0.07677801
60	0xbb802adc	-0.0039113592
61	0x3cab0a87	0.020879043
62	0xbe05e322	-0.13074926
63	0xbdd739a3	-0.1050904
64	0x3e370d32	0.17876127
65	0xbbc6f6dc	-0.0060719084
66	0x3d19c9c2	0.037545927
67	0x3e9e0394	0.30862105
68	0xbb09cef6	-0.00210279
69	0x3dccc010	0.099975705
70	0x3d117935	0.035515983
71	0xbe6d7422	-0.23188832
72	0xbde5c79a	-0.112197116
73	0xbc6e58e7	-0.014547563
74	0x3e00bc07	0.12571727
75	0xbd78eb18	-0.060771078
76	0x3d59e454	0.053196266
77	0xbd6d2e9b	-0.057905775
78	0x3cd905f0	0.026492089
79	0xbd1cfe64	-0.038328543
80	0xbc32c4c9	-0.010911175
81	0xbe1c8fa9	-0.15289177
82	0xbe3c5f3f	-0.18395709
83	0x3d7b526a	0.061357893
84	0xbe00b31f	-0.1256833
85	0x3cecf4fa	0.028925408
86	0x3d4b20ba	0.049591757
87	0xbe72be59	-0.23705424
88	0x3b181801	0.0023207667
89	0xbd8afc6d	-0.06786428
90	0xbda80f7f	-0.08206081
91	0xbc814d60	-0.015783966
92	0x3bb058e3	0.00538169
93	0x3cb99578	0.02265428
94	0xbd80048a	-0.06250866
95	0xbd4cb7a4	-0.04997982
96	0xbd890023	-0.06689479
97	0xbd4e2e61	-0.0503372
98	0xbdc40f46	-0.09573226
99	0x3d666a56	0.056253754
100	0x3ce74b9a	0.028234292
101	0x3ca46307	0.020066751
102	0xbe9c011b	-0.30469593
103	0x3ba7718b	0.005109971
104	0x3c38f8b3	0.011289763
105	0xbce57a49	-0.028012412
106	0x3d06493c	0.032784685
107	0xbe1a4fee	-0.15069553
108	0xbca52ce9	-0.020163016
109	0x3d819776	0.06327717
110	0xbc90120c	-0.01758673
111	0x3dfdbe84	0.123898536
112	0xbe7a38bd	-0.24435706
113	0xbcd0be7b	-0.025481453
114	0x3dc20870	0.094742656
115	0xbe566142	-0.20935538
116	0xbdf151f5	-0.1178321
117	0xbd7c6b8f	-0.061626013
118	0xbe01b86e	-0.1266801
119	0x3d7719ff	0.060327526
120	0xbd6ac80c	-0.057319686
121	0x3f3f8eb6	0.74827135
122	0x3e8963ad	0.2683386
123	0x3d8f0ce1	0.06984878
124	0x3ed44a1f	0.414628
125	0xbd71b3e9	-0.059009466
126	0xbe78be3a	-0.24291316
127	0xbdc80ee0	-0.09768462
128	0xbd87268b	-0.06599148
129	0xbe4f0d23	-0.20219855
130	0x3d853818	0.0650484
131	0xbe0fb136	-0.14032444
132	0xbe4612f7	-0.19343172
133	0xbd82291d	-0.06355498
134	0x3e3ff105	0.18744285
135	0xbe6e1041	-0.23248388
136	0xbe5d4b85	-0.2161084
137	0xbe0e26a4	-0.13881928
138	0xbd1250f1	-0.035721723
139	0xbc8c738d	-0.017144943
140	0xbe54aea9	-0.20769753
141	0x3e0734f8	0.132038
142	0x3d67ba84	0.05657436
143	0xbda6637a	-0.081244424
144	0x3ed4eceb	0.41587004
145	0xbcbe0e0b	-0.023200056
146	0x3d9b7f51	0.07592643
147	0xbe7f34b1	-0.24922444
148	0xbc71dcee	-0.014762146
149	0x3e67dc39	0.22642602
150	0x3b4afa86	0.0030972078
151	0xbe0c23ea	-0.13685575
152	0x3d1de09d	0.038544286
153	0xbd672496	-0.056431375
154	0x3d9d0639	0.076672025
155	0xbdb43b72	-0.08800401
156	0xbdc28de0	-0.09499717
157	0xbd0f6520	-0.03500855
158	0xbdab11cf	-0.08353006
159	0x3d916043	0.070984386
160	0xbdb50238	-0.08838314
161	0xbe9981ed	-0.29981938
162	0xbdfb27ff	-0.12263488
163	0xbcaa95fa	-0.020823468
164	0xbd1e5587	-0.038655784
165	0xbded50b2	-0.11587657
166	0xbe9c0daf	-0.3047919
167	0xbe189c68	-0.14903414
168	0xbbde66d2	-0.0067871595
169	0xbe370552	-0.17873123
170	0xbe272312	-0.16321972
171	0xbe31286a	-0.17300573
172	0xbd955083	-0.07290747
173	0xbd26c4b4	-0.040714934
174	0xbd27f669	-0.04100648
175	0x3c0e3fa2	0.008682163
176	0xb9a8d759	-0.00032203904
177	0x3e682040	0.22668552
178	0xbd1b102d	-0.037857223
179	0x3dd1210e	0.10211383
180	0x3c1aa7fb	0.009439464
181	0xbe2a49bf	-0.16629694
182	0x3ea8a0ee	0.3293528
183	0xbd0a9ce8	-0.033841044
184	0xbc447a83	-0.0119921
185	0xbd394c95	-0.04523905
186	0xbe2c7471	-0.16841294
187	0xbe757991	-0.23972155
188	0xbd1d0c74	-0.038341954
189	0xbdaf5d76	-0.08562748
190	0xbc3eb2e0	-0.011639327
191	0xbdc69bab	-0.0969766
192	0xbc992eb4	-0.018699028
193	0xbd8e4b40	-0.069479465
194	0xbd9a30b2	-0.07528819
195	0x3bc7eafb	0.00610101
196	0xbe5bb54c	-0.21455878
197	0xbe166189	-0.14685644
198	0xbbe5923c	-0.007005958
199	0xbc9e68ea	-0.019337136
200	0xbd522c42	-0.05131174
201	0xbde000a1	-0.1093762
202	0xbdade307	-0.08490568
203	0x3d53ff37	0.051757064
204	0x3c0ea11f	0.008705406
205	0xbdb66df2	-0.08907689
206	0xbea0d701	-0.31414035
207	0xbe396a9b	-0.18107073
208	0xbd341456	-0.043964706
209	0xbe64faa5	-0.22361238
210	0xbda2d14f	-0.07950079
211	0xbe839c0e	-0.25704998
212	0xbe2a3ffe	-0.16625974
213	0xbd57a23f	-0.052644964
214	0xbe7319f3	-0.23740368
215	0xbe876eca	-0.26451713
216	0xbda52d71	-0.08065308
217	0xbdb5ba2a	-0.088733986
218	0xbd4b6714	-0.04965885
219	0x3d73e113	0.05954082
220	0xbd972cfe	-0.073816285
221	0xbeb254a2	-0.34830195
222	0xbe021c81	-0.12706186
223	0xbd749b6f	-0.059718546
224	0xbe1218cf	-0.14267276
225	0x3da85c83	0.0822077
226	0xbe559a5e	-0.20859668
227	0xbebf79fd	-0.37397757
228	0xbd363a51	-0.04448921
229	0xbbc469b0	-0.0059940442
230	0xbcf46859	-0.029834913
231	0xbe07200a	-0.13195816
232	0xbdd3d6bc	-0.10343692
233	0xbd62f44b	-0.055408757
234	0xbe4a5dd5	-0.19762357
235	0xbd714013	-0.058898997
236	0xbe697bfb	-0.22801201
237	0xbc89df17	-0.01683001
238	0xbd46d950	-0.04854709
239	0xbe1afbf1	-0.1513517
240	0xbd9a8cfc	-0.07546422
241	0xbca45a28	-0.020062521
242	0xbdca961a	-0.09891911
243	0x3b406090	0.002935443
244	0xbe0861cf	-0.13318561
245	0xbcb49615	-0.022044221
246	0xbe503495	-0.20332558
247	0xbe3fe02c	-0.18737859
248	0xbd88438b	-0.06653508
249	0xbe0df32a	-0.13862291
250	0xbde60ed2	-0.112332955
251	0x3d99156b	0.07474788
252	0xbe0fb2d9	-0.14033069
253	0xbd277fc9	-0.04089335
254	0x3dddccfa	0.10830112
255	0xbd233278	-0.039843053

sequential/dense_1/MatMul f4 [224, 608]
0	0x39a70c54	0.00031861907
1	0x3cfde9da	0.030995298
2	0xbd8e5333	-0.06949463
3	0x3d5d0f08	0.053969413
4	0x3b0095ba	0.0019620494
5	0x3b9bcb1d	0.0047544376
6	0x3d36abae	0.04459732
7	0xbb322667	-0.0027183534
8	0xbd32f79f	-0.04369318
9	0x3cc9954f	0.024607329
10	0xbd12f18e	-0.035874896
11	0x3d08476b	0.033271234
12	0xbd35a5f8	-0.044347733
13	0xbdb06869	-0.08613665
14	0xbc6d3b9f	-0.014479547
15	0xbd8f86d7	-0.070081405
16	0xbddf2fea	-0.10897811
17	0xbdc6d4fe	-0.09708594
18	0xbcf4168a	-0.029795904
19	0xbbbaf890	-0.0057059005
20	0xbd3c51cb	-0.04597644
21	0xbdd2d9ad	-0.102954246
22	0xbde02978	-0.109454095
23	0xbd41b208	-0.047288924
24	0x3cfd946c	0.030954562
25	0xbdd3ccd4	-0.10341802
26	0xbdd1381c	-0.1021578
27	0x3ce9405f	0.028473077
28	0x3d744285	0.05963375
29	0x3b51c84d	0.0032010258
30	0x3d45de54	0.04830773
31	0xbd5427a3	-0.051795613
32	0xbcbb2be0	-0.02284807
33	0xbd76cc12	-0.06025321
34	0x3d107976	0.035272084
35	0x3c688b6f	0.0141934
36	0xbb7abe07	-0.0038260238
37	0xbdb306d5	-0.087415375
38	0x3d4460c4	0.047943845
39	0xbce73fe9	-0.028228717
40	0x3da1c92d	0.07899699
41	0x3d4c35f5	0.049856145
42	0x3c06d79d	0.008230117
43	0xbd82abd9	-0.063804336
44	0x3a7f48cd	0.0009738326
45	0xbda45801	-0.08024598
46	0x3c8c854b	0.017153403
47	0x3ca6d892	0.02036694
48	0x3b89a055	0.0042000213
49	0xbdc85897	-0.09782522
50	0xbd481e18	-0.048856825
51	0xbc46d9e3	-0.012136909
52	0xbda3e40e	-0.08002482
53	0xbd7bb669	-0.061453257
54	0x3d5e2c73	0.05424161
55	0xbd417d41	-0.047238592
56	0xbddf3c51	-0.10900176
57	0x3da82fea	0.08212264
58	0xbdde84f0	-0.108651996
59	0x3c0016f9	0.007817977
60	0x3c98c0df	0.018646656
61	0xbd4f89c2	-0.050668485
62	0x3daaecb0	0.08345926
63	0x3d108f0b	0.035292666
64	0xbd97f4d0	-0.07419741
65	0xbc8c3a3e	-0.017117616
66	0xbd8335c9	-0.06406743
67	0xbd39008e	-0.045166545
68	0x3d423f5e	0.047423713
69	0xbdb5ef39	-0.08883519
70	0x3d0eed0f	0.034894045
71	0xbca3d8f3	-0.02000091
72	0x3d0f9804	0.035057083
73	0x3c830d6e	0.015997615
74	0xbde9be07	-0.11413198
75	0xbd36e204	-0.04464914
76	0xbd8d0ba5	-0.06886987
77	0xbdaff210	-0.08591092
78	0xbd9aeaa7	-0.07564288
79	0xbd3894b7	-0.0450637
80	0x3d63e445	0.055637617
81	0xbd317d57	-0.043332424
82	0xbdada50b	-0.08478745
83	0xbce30c6e	-0.027715888
84	0x3d129fa4	0.035796776
85	0x3d6dee0f	0.05808836
86	0x3d986274	0.074406534
87	0xb8c277bd	-9.272944e-05
88	0x3d27763c	0.04088424
89	0x3c714fd5	0.014728506
90	0xbd1185c2	-0.035527952
91	0xbd646973	-0.055764627
92	0x3cf1fe81	0.029540302
93	0xbcfbf95b	-0.03075855
94	0xbc9b01fe	-0.018921848
95	0xbd96d2d8	-0.07364434
96	0x3c599b19	0.013281607
97	0x3c759785	0.014989738
98	0xbd6d0d94	-0.057874277
99	0xbdb32a0b	-0.087482534
100	0xbd17baf1	-0.037043516
101	0xbcdbdc6e	-0.026838508
102	0xbb4dfada	-0.0031430037
103	0xbceba480	-0.028764963
104	0xbd8d1564	-0.068888456
105	0xbd8f30e4	-0.06991747
106	0x3d8b17e0	0.06791663
107	0x3cd88887	0.026432289
108	0xbbc2e275	-0.005947406
109	0x3d390e38	0.045179576
110	0x3d854fd8	0.065093696
111	0x3cadaff1	0.02120206
112	0xbd58589d	-0.052818883
113	0xbdbdcb50	-0.092672944
114	0xbdd5a741	-0.10432292
115	0xbd0783f0	-0.03308481
116	0xb9a689e1	-0.00031764715
117	0xbd1daeff	-0.038496967
118	0x3d5cc435	0.053898055
119	0xbd28b022	-0.0411836
120	0xbdd5f44b	-0.10446986
121	0x3c79c074	0.015243638
122	0x3cae673d	0.021289462
123	0xbc17526c	-0.0092359595
124	0x3c3f6c33	0.011683512
125	0x3b260e28	0.0025338028
126	0x3bd38fd3	0.006456354
127	0xba9984dc	-0.0011712569
128	0xbd812d22	-0.063074365
129	0x3c813817	0.015773816
130	0xbda3fd34	-0.08007279
131	0x3d956455	0.072945274
132	0xbdaa38f7	-0.083116464
133	0xbd22314c	-0.039597794
134	0xbd9c3176	-0.076266214
135	0x3c55046b	0.013001542
136	0x3c12f966	0.008970594
137	0xbd942396	-0.0723335
138	0xbd01c235	-0.03167935
139	0xbd8d7fb8	-0.06909126
140	0x3ca33fbf	0.019927857
141	0x3c83273a	0.016009916
142	0x3c65db88	0.014029391
143	0xbd86b05a	-0.06576605
144	0xbd6e625d	-0.058199275
145	0x3d358fca	0.04432658
146	0xbc9b18a6	-0.018932652
147	0xbdd0f4da	-0.10202952
148	0xbd97d75c	-0.074141234
149	0xbbeb1073	-0.0071735918
150	0xbde4a206	-0.11163716
151	0x3bf00f24	0.0073260237
152	0x3d55d9e7	0.05220976
153	0x3b168ef4	0.002297339
154	0xbdcf437c	-0.101202935
155	0xbca5247a	-0.020158995
156	0xbd787f0f	-0.060668048
157	0xbb7684b9	-0.003761573
158	0xbd595645	-0.05306079
159	0xbdc73aa9	-0.097279854
160	0xbbfca88f	-0.0077105234
161	0xbcad8f22	-0.021186415
162	0xbcfaa14a	-0.030594487
163	0xbc61b716	-0.013776561
164	0xbdb7f8b3	-0.089829825
165	0xbbbaaeac	-0.005697092
166	0x3c1e0c68	0.009646513
167	0x3c845186	0.016152155
168	0xbd647b0a	-0.0557814
169	0xbdd38755	-0.10328547
170	0xbd588425	-0.052860398
171	0x3cd712f9	0.026254164
172	0x3c7bf1a8	0.01537744
173	0xbd8e40bf	-0.06945943
174	0x3d546948	0.051858217
175	0x3cc44e1f	0.023963032
176	0xbd02604d	-0.03183012
177	0xbddc4871	-0.107560046
178	0xbcbd708e	-0.02312496
179	0xbd34f001	-0.044174198
180	0xbdceac20	-0.10091424
181	0x3ca4860c	0.02008345
182	0x3cbbcf54	0.02292601
183	0x3cbb001d	0.022827202
184	0xbc9a5797	-0.018840594
185	0x3ce73552	0.028223667
186	0x3c15fd48	0.009154625
187	0xbd00d67c	-0.03145455
188	0x3b858e72	0.0040758187
189	0xbda41124	-0.08011082
190	0x3bfece4a	0.0077760564
191	0x3c929cff	0.017897127
192	0xbd11dc27	-0.035610344
193	0xbceee3ad	-0.029161299
194	0x3d2341c1	0.03985763
195	0x3d1f412d	0.038880516
196	0xbdd1b9a4	-0.10240486
197	0x3cdafa64	0.026730724
198	0xbd1f410b	-0.03888039
199	0xbd44ca6f	-0.04804462
200	0xbba09d6e	-0.0049015796
201	0xbdcbccf1	-0.09951199
202	0xbc6185aa	-0.013764778
203	0xbd27a8c8	-0.040932447
204	0xbd908576	-0.07056706
205	0x3c1abb70	0.009444103
206	0x3d3854b0	0.04500264
207	0xbc7772f7	-0.015103093
208	0xbd9bea05	-0.07612995
209	0xbd64928a	-0.055803813
210	0x3d57f948	0.052727968
211	0xbd5a4b68	-0.05329457
212	0x3d501c45	0.05080821
213	0xbd30bdf5	-0.043149907
214	0xbcf3508a	-0.02970149
215	0xbd9a322d	-0.075291015
216	0xbb423bb5	-0.002963764
217	0xbdc8ef16	-0.09811227
218	0xbc22b7d8	-0.009931527
219	0xbd29e030	-0.041473567
220	0xbda7df10	-0.08196843
221	0x3cbbf795	0.022945205
222	0x3bf5c111	0.007499822
223	0x3c838da7	0.016058756
224	0x3cbbf688	0.022944704
225	0x3d31c2ed	0.043398786
226	0xbb91389f	-0.0044317986
227	0x3b315f49	0.002706485
228	0xbd580e36	-0.052747928
229	0x3d451bdc	0.048122272
230	0xbd5a499c	-0.053292856
231	0xbdcd5dc0	-0.10027647
232	0xbda336ef	-0.07969462
233	0xbcf58936	-0.029972654
234	0x3d4afcde	0.04955756
235	0x3d5ba09c	0.053619966
236	0xbc9e9dd5	-0.01936237
237	0x3d4f1fa0	0.05056727
238	0x3d38abfb	0.04508589
239	0xbd6685af	-0.056279834
240	0x3cf79ecd	0.03022709
241	0x3c4587d5	0.012056311
242	0xbda26660	-0.07929683
243	0x3d4a63ac	0.04941146
244	0x3d3e57be	0.046470396
245	0xbd0484fb	-0.032353383
246	0xbc235768	-0.00996957
247	0x3d137454	0.03599961
248	0x3cae778b	0.021297237
249	0x3d2618d1	0.04055101
250	0xbdd46722	-0.103712335
251	0xbd23d387	-0.03999665
252	0xbd0b0a36	-0.033945285
253	0x3d188bb6	0.037242614
254	0xbda63a5a	-0.081165984
255	0x3c7d3750	0.015455082

sequential/dense_10/MatMul f4 [10, 10]
0	0x3cb98458	0.022646114
1	0x3df09b17	0.11748331
2	0x3eb33023	0.34997663
3	0x3ec3fc14	0.38278258
4	0x3e45d085	0.19317825
5	0x3e8db3e2	0.27676302
6	0xbd46855e	-0.048467033
7	0x3ee8f1dc	0.45497024
8	0x3e5b320c	0.2140581
9	0xbe556dcb	-0.20842664
10	0xbdc5b90c	-0.096544355
11	0xbd972367	-0.07379799
12	0x3ecbdf89	0.3981898
13	0xbded46da	-0.115857795
14	0xbe92dc7b	-0.28683838
15	0xbee63310	-0.44960833
16	0xbe297736	-0.16549382
17	0x3e9b12c8	0.30287766
18	0x3e2a5138	0.16632545
19	0xbe6923da	-0.22767583
20	0x3ef58788	0.47954965
21	0xbefd13b1	-0.49429086
22	0xbf06b618	-0.52621603
23	0xbd018f10	-0.031630576
24	0x3eb78a14	0.35847533
25	0xbec8d86c	-0.39227617
26	0x3ea0b822	0.31390482
27	0xbed7fef9	-0.42186716
28	0xbec25635	-0.37956396
29	0xbe0cd0e3	-0.13751559
30	0xbe87d3b0	-0.26528692
31	0xbf02355c	-0.5086267
32	0xbeef31f4	-0.467178
33	0x3d1b12f1	0.03785986
34	0x3eda1ada	0.4259861
35	0x3eef5207	0.4674227
36	0x3c7b59d2	0.015341239
37	0xbf0234d1	-0.5086184
38	0xbd077540	-0.033070803
39	0x3e056c5e	0.1302962
40	0xbe92d70a	-0.28679687
41	0x3e0c20bc	0.13684362
42	0xbefe6b0d	-0.49691048
43	0x3ee1f8e3	0.44135198
44	0xbda0ff63	-0.07861211
45	0xbe270086	-0.16308793
46	0x3dbef682	0.093243614
47	0xbe24ab9a	-0.16081086
48	0x3e96dbd0	0.2946458
49	0xbe05b7dc	-0.13058418
50	0x3f03216c	0.5122287
51	0xbe875b46	-0.26436824
52	0x3d734e24	0.059400693
53	0x3e1ab138	0.15106666
54	0x3e1e7c41	0.15477087
55	0x3e477c52	0.19481018
56	0xbf639d7c	-0.8891218
57	0x3e34b2c9	0.17646326
58	0x3d7b80d0	0.061402142
59	0xbe50067c	-0.20314974
60	0xbe84de3f	-0.2595081
61	0xbed32aa3	-0.41243467
62	0x3ee0f37e	0.4393577
63	0x3dfd2941	0.12361384
64	0x3e07312a	0.13202348
65	0xbe396911	-0.18106486
66	0x3ee51128	0.44739652
67	0x3ecb637b	0.39724335
68	0xbf00b8ef	-0.50282186
69	0xbdda4462	-0.10657574
70	0x3ee3f898	0.445256
71	0xbed58fcb	-0.41711268
72	0x3ee0818f	0.43848845
73	0xbe146502	-0.14491656
74	0x3e474824	0.19461113
75	0x3e9ddb49	0.30831364
76	0xbee8d1d2	-0.4547258
77	0xbe958c1a	-0.29208452
78	0x3e9683d2	0.29397446
79	0x3eb5686b	0.35431227
80	0x3de9538e	0.1139289
81	0x3edbe877	0.42950794
82	0x3ebf4b3a	0.3736208
83	0xbeab7950	-0.33490992
84	0xbe01bcb3	-0.1266964
85	0xbdffe21f	-0.12494301
86	0x3ebdc6e8	0.37065816
87	0x3e04d26d	0.12970896
88	0xbece0ad9	-0.4024265
89	0x3dd2b9b6	0.10289328
90	0x3dd848e0	0.10560775
91	0xbf0a5537	-0.5403628
92	0x3e0931c7	0.13397895
93	0x3dc232bd	0.09482334
94	0xbe86909b	-0.262822
95	0x3dac2755	0.084059395
96	0x3e8c92a6	0.27455634
97	0xbebe4468	-0.37161565
98	0xbefc0e08	-0.49229455
99	0x3cffb519	0.031214284

sequential/dense_11/MatMul f4 [10, 10]
0	0xbe3a7ba4	-0.18211228
1	0x3de62f28	0.11239463
2	0xbee3d8e5	-0.44501415
3	0xbed5b07e	-0.41736215
4	0x3eb2c8b6	0.34918755
5	0x3e7d1d20	0.24718142
6	0xbecd55cf	-0.4010453
7	0x3ebe15ea	0.37126094
8	0x3ce4e3a0	0.027940571
9	0x3ed7251e	0.42020506
10	0xbeb61706	-0.3556444
11	0x3ef66e80	0.4813118
12	0xbdae9974	-0.085253626
13	0xbd37ff50	-0.04492122
14	0x3eb19e9c	0.34691322
15	0x3e399b34	0.18125612
16	0x3ea0696a	0.31330425
17	0xbe8ad9e9	-0.27119377
18	0xbf0b325e	-0.5437373
19	0x3eddc312	0.4331289
20	0x3ef154be	0.47134966
21	0x3df1304c	0.1177679
22	0x3d12c4c0	0.035832167
23	0xbf19e89b	-0.6012055
24	0x3e0a63f2	0.13514689
25	0x3d2134fe	0.039357178
26	0xbeb73b77	-0.35787556
27	0x3eb61417	0.35562202
28	0x3ecbafa1	0.39782432
29	0xbeb92d7a	-0.36167508
30	0xbe18c146	-0.14917478
31	0x3d7fccc0	0.062451124
32	0x3effee18	0.4998634
33	0x3d5f56d0	0.05452615
34	0xbc8a2e60	-0.016867816
35	0x3e7d7b88	0.24754155
36	0xbe82ab51	-0.2552133
37	0xbf0b78ea	-0.54481375
38	0x3ce6fa40	0.0281955
39	0xbed5b930	-0.4174285
40	0x3cae2754	0.021258987
41	0x3e57068b	0.2099859
42	0xbdb03194	-0.08603206
43	0x3f018e7a	0.50608027
44	0xbd37ecf6	-0.044903718
45	0x3ded9294	0.11600223
46	0x3e513bf8	0.20433033
47	0x3e9ea1ca	0.3098281
48	0xbec3747f	-0.38174817
49	0xbeca5a03	-0.39521798
50	0xbebb71bf	-0.3661022
51	0x3e4ec31b	0.20191614
52	0xbe9a4c1e	-0.30136198
53	0x3ec25fd1	0.37963727
54	0xbce9d660	-0.028544605
55	0x3eabd3ef	0.3356013
56	0xbd057d7e	-0.03259038
57	0x3f0f220e	0.5591134
58	0x3e31ecee	0.17375538
59	0xbe813def	-0.25242564
60	0x3d9d4bc6	0.07680468
61	0x3e5f135e	0.21784732
62	0x3ef29520	0.47379398
63	0xbeac2130	-0.3361907
64	0x3ed148cb	0.4087585
65	0x3efa392f	0.48871753
66	0x3c9cc9d1	0.019139202
67	0x3f06affc	0.5261228
68	0xbf1bdc0f	-0.6088266
69	0xbf02fdfe	-0.5116881
70	0x3e516000	0.20446777
71	0x3ef7088d	0.4824871
72	0xbeaab332	-0.3333984
73	0xbdfa4b9d	-0.12221453
74	0xbe00ddec	-0.12584656
75	0x3e68505c	0.22686905
76	0x3e136e97	0.14397655
77	0xbd3c146b	-0.04591791
78	0x3de0e07a	0.109803155
79	0xbe0fefcc	-0.14056319
80	0xbf0ef442	-0.5584146
81	0x3d134420	0.03595364
82	0xbe3fb51c	-0.18721431
83	0x3e178889	0.14798178
84	0x3f009c94	0.5023892
85	0xbd1df3cf	-0.038562592
86	0xbee81846	-0.4533102
87	0x3d7d57e1	0.061851386
88	0x3e0628b5	0.13101466
89	0xbef417aa	-0.47674304
90	0xbd4b8a40	-0.049692392
91	0x3d64bdc2	0.05584503
92	0x3dc4ca84	0.09608939
93	0x3f073478	0.52814436
94	0xbeb5d906	-0.35517138
95	0xbd945087	-0.07241922
96	0xbe90c82d	-0.28277722
97	0x3f00222a	0.5005213
98	0x3dd4c6a4	0.1038945
99	0x3d64bdf3	0.055845212

sequential/dense_12/MatMul f4 [10, 10]
0	0x3c1bfb40	0.009520352
1	0x3f014e56	0.50510156
2	0x3e7ac754	0.244901
3	0x3f07c562	0.5303556
4	0x3f1f31a7	0.6218514
5	0x3db680a7	0.08911257
6	0xbef7ce01	-0.48399356
7	0xbe103be9	-0.14085354
8	0x3e83d830	0.25750875
9	0x3eca9049	0.39563206
10	0x3e397b2c	0.18113393
11	0xbc393380	-0.011303782
12	0xbd1c0d18	-0.038098425
13	0xbf0a0f9d	-0.53930074
14	0x3ea93f53	0.33056125
15	0xbe88985c	-0.2667874
16	0xbf11345a	-0.5672051
17	0xbeec165d	-0.46110812
18	0xbd664e94	-0.05622728
19	0x3cbfd3fa	0.023416508
20	0x3e9dcdf6	0.30821198
21	0x3ed3891c	0.41315544
22	0xbdac4888	-0.08412272
23	0xbcd154e0	-0.025553167
24	0xbe8d61bf	-0.27613637
25	0x3f047940	0.5174751
26	0x3ee825e4	0.45341408
27	0xbf08b5dd	-0.534025
28	0xbef5f07d	-0.4803504
29	0xbef9568c	-0.48698843
30	0x3cb49a60	0.022046268
31	0xbe98785f	-0.29779336
32	0x3d80cc21	0.062889345
33	0x3d964430	0.073372245
34	0x3e88fc88	0.26755166
35	0x3cf19a0d	0.029492402
36	0x3f24630b	0.6421363
37	0xbf00d6bc	-0.5032766
38	0x3eadc68a	0.33940536
39	0x3ebdd414	0.37075865
40	0xbdeca3e4	-0.11554697
41	0x3f06dd42	0.5268136
42	0x3e51316f	0.20429014
43	0x3c9338c0	0.017971396
44	0xbd6ea639	-0.05826399
45	0xbee39c92	-0.4445539
46	0x3ef01369	0.4688981
47	0x3e8eb462	0.27871996
48	0x3dfb4bdb	0.12270328
49	0x3e1c6119	0.15271415
50	0x3d640540	0.05566907
51	0x3e97ec04	0.29672253
52	0x3edcc8fe	0.43122095
53	0x3ea6dd0a	0.32590514
54	0xbe30c63a	-0.17263117
55	0xbeeb9c63	-0.4601775
56	0x3e29d2d9	0.16584338
57	0x3e91822f	0.28419635
58	0xbdedb768	-0.116072476
59	0xbe11af71	-0.14227082
60	0xbe4581fc	-0.19287866
61	0xbee43277	-0.44569752
62	0x3df57d11	0.11986745
63	0xbef0531c	-0.46938407
64	0x3f083b2b	0.53215283
65	0xbe5bac8b	-0.21452539
66	0xbea9e33a	-0.33181173
67	0x3eec5cd3	0.4616457
68	0xbe8a033d	-0.26955596
69	0xbec2becc	-0.3803619
70	0xbe3223f6	-0.1739653
71	0x3edc32e8	0.43007588
72	0x3e295470	0.16536117
73	0xbec33c56	-0.3813197
74	0xbf113f5a	-0.5673729
75	0x3e8f09d0	0.27937174
76	0x3cada495	0.021196643
77	0x3ed0a989	0.40754345
78	0x3e6d0eea	0.2315022
79	0xbe9f2d64	-0.31089318
80	0x3f0c2f80	0.5475998
81	0x3efa3728	0.48870206
82	0x3cae33e9	0.021264987
83	0x3e9647d8	0.29351687
84	0x3f220c81	0.6330033
85	0x3edc397c	0.43012607
86	0xbda3ad54	-0.07992044
87	0xbdd9c8a8	-0.10633975
88	0xbd4ae227	-0.049532082
89	0x3ed53762	0.41643816
90	0xbf0ab9c7	-0.54189724
91	0x3ead3808	0.3383181
92	0x3e1e72f0	0.15473533
93	0xbf07dbfb	-0.5307004
94	0x3d9f39c0	0.07774687
95	0x3e8b6f55	0.27233377
96	0xbeeda5db	-0.464156
97	0x3eb16a71	0.3465152
98	0x3ef56c00	0.4793396
99	0xbcde54b2	-0.027139995

sequential/dense_13/MatMul f4 [10, 10]
0	0x3efdcb9c	0.49569404
1	0xbe6e4dd7	-0.23271881
2	0xbecbe1fe	-0.39820856
3	0x3eef1196	0.46693105
4	0xbe9c9b58	-0.30587268
5	0xbeec55df	-0.46159264
6	0xbe12aef4	-0.14324552
7	0x3eb2165d	0.34782687
8	0x3eb4a10a	0.35279113
9	0x3e55bc78	0.20872676
10	0x3db515ef	0.08842074
11	0x3d26f538	0.040761203
12	0x3c5e6740	0.013574421
13	0x3e9cec4c	0.3064903
14	0x3f0a17ac	0.5394237
15	0xbe5083e8	-0.20362818
16	0x3eff55ae	0.49870056
17	0x3f062894	0.5240567
18	0xbebe242b	-0.3713697
19	0x3eb740ef	0.35791728
20	0x3ed3c47d	0.41360846
21	0x3d8fb960	0.07017779
22	0x3ecba64e	0.39775318
23	0x3ee44b82	0.44588858
24	0xbf663672	-0.89926827
25	0xbe0a6a18	-0.13517034
26	0xbf395fe0	-0.7241192
27	0xbedf0afe	-0.43563074
28	0x3e4502d5	0.19239362
29	0xbf162e6c	-0.58664584
30	0xbcb210c0	-0.021736503
31	0xbd20db90	-0.03927189
32	0xbeb8a61a	-0.36064225
33	0xbe3b6c16	-0.1830295
34	0x3e75f834	0.24020463
35	0xbdab604c	-0.083679765
36	0xbea1e59e	-0.31620497
37	0xbe296246	-0.16541395
38	0xbebd5fc8	-0.36987138
39	0x3da5d198	0.080966175
40	0x3efb6a0f	0.49104354
41	0x3e31c6a1	0.17360927
42	0xbd2886e0	-0.04114425
43	0x3d56e729	0.052466545
44	0x3e97110e	0.295052
45	0xbef7d29e	-0.48402876
46	0x3d5347b2	0.051582046
47	0x3bc3353a	0.005957273
48	0xbe1c5756	-0.15267691
49	0x3d9afc2b	0.075676285
50	0x3ed144bf	0.40872762
51	0x3e01f591	0.12691332
52	0xbf031593	-0.51204795
53	0x3e6e4144	0.23267084
54	0xbeba35e1	-0.3636923
55	0xbd5c0bbe	-0.053722136
56	0xbedb5a4f	-0.42842337
57	0x3edf9365	0.4366714
58	0x3dd4c590	0.103892446
59	0xbd103b87	-0.03521302
60	0xbe7fba60	-0.2497344
61	0x3e5c240b	0.21498124
62	0xbbb00500	-0.00537169
63	0x3eb810e0	0.35950375
64	0xbf181b17	-0.59416336
65	0xbeba1ff2	-0.36352497
66	0xbf252431	-0.6450835
67	0x3ea7f0f5	0.32801023
68	0x3eedc416	0.46438664
69	0xbe2fb0c3	-0.17157273
70	0xbec2a2f0	-0.38014936
71	0xbe396d3c	-0.18108076
72	0xbef38916	-0.47565526
73	0x3eed8090	0.46387148
74	0xbefd1f2d	-0.49437848
75	0xbdd35bcc	-0.10320243
76	0x3d2f4a60	0.04279554
77	0xbeedfd04	-0.46482098
78	0xbece5f48	-0.4030707
79	0x3c8eb680	0.017421007
80	0x3bf3d700	0.0074414015
81	0xbe843c56	-0.25827283
82	0xbdad04c0	-0.084481716
83	0xbec99c16	-0.39376897
84	0x3efe3208	0.49647546
85	0xbe7835ac	-0.24239224
86	0xbe45ad52	-0.19304398
87	0xbf096858	-0.5367484
88	0xbec4d3f2	-0.3844295
89	0xbe86684f	-0.26251456
90	0xbf17cc06	-0.5929569
91	0x3e92fc3d	0.28708068
92	0xbeee3a2c	-0.46528757
93	0x3d3573f1	0.044300023
94	0xbc58d3c5	-0.013234084
95	0xbef2089f	-0.47272202
96	0xbf0c0b1d	-0.5470446
97	0x3d6576c0	0.056021452
98	0x3e1ed4ef	0.15510915
99	0x3e90e2e4	0.28298104

sequential/dense_14/MatMul f4 [10, 10]
0	0x3de24317	0.110479526
1	0xbd6155a7	-0.055013325
2	0x3ef243b7	0.47317287
3	0x3f09ca86	0.5382465
4	0x3e555c65	0.20836027
5	0xbe306e82	-0.17229655
6	0xbd949a20	-0.072559595
7	0xbe0d2cf6	-0.13786682
8	0xbdd70e20	-0.10500741
9	0x3e810d65	0.25205532
10	0xbf3d5867	-0.73963016
11	0x3ea17979	0.3153799
12	0x3e9a45ee	0.30131477
13	0x3eccc21c	0.39991844
14	0xbeeedec5	-0.46654335
15	0xbed34896	-0.41266316
16	0x3db9e640	0.0907712
17	0x3e908ace	0.282309
18	0xbf095339	-0.5364261
19	0xbc417dc0	-0.011809766
20	0x3eb420ef	0.35181376
21	0xbc186e33	-0.009303617
22	0x3ed5b398	0.41738582
23	0x3e87be4c	0.26512372
24	0x3f115824	0.56775117
25	0xbd303663	-0.043020617
26	0xbee321fb	-0.44361863
27	0xbec8aacc	-0.39192808
28	0xbe92c04b	-0.28662333
29	0x3efd1822	0.49432474
30	0x3f3bba2a	0.7333094
31	0x3c5e5294	0.013569493
32	0x3f158730	0.58409405
33	0x3dffd5c8	0.124919474
34	0x3e8cc772	0.27495915
35	0xbec2b542	-0.38028914
36	0x3e654258	0.2238859
37	0x3eabbba4	0.33541596
38	0x3f081594	0.53157926
39	0xbdb63875	-0.08897487
40	0xbedf6b9a	-0.4363678
41	0xbee782bb	-0.45216927
42	0x3eadc9c3	0.33942994
43	0x3f07cc4a	0.53046095
44	0x3f02d7be	0.51110446
45	0x3ec4838f	0.3838162
46	0xbe0ff760	-0.1405921
47	0x3ec0ed76	0.37681168
48	0x3e7aae04	0.24480444
49	0xbefd09a5	-0.4942142
50	0xbdddc444	-0.1082845
51	0xbe5c19a8	-0.21494162
52	0xbddeb970	-0.10875213
53	0x3f0753aa	0.52862036
54	0x3e467400	0.19380188
55	0x3db665d8	0.08906144
56	0x3d5d7c20	0.054073453
57	0xbf078a89	-0.5294576
58	0x3e0a3094	0.13495094
59	0xbdf8e054	-0.12152162
60	0xbf2437a8	-0.64147425
61	0x3f139b86	0.57659185
62	0x3e9ef263	0.310443
63	0x3caec660	0.021334827
64	0x3ee43dc3	0.4457837
65	0xbd9119df	-0.07085013
66	0xbeaae8e1	-0.33380798
67	0x3c42e140	0.011894524
68	0xbe92d4a5	-0.2867786
69	0xbe285ae6	-0.16440925
70	0xbe5cfd69	-0.21581043
71	0x3e3fc1dd	0.18726297
72	0x3e99fae3	0.30074224
73	0xbeada904	-0.3391801
74	0x3ee5bf16	0.4487235
75	0x3b370f01	0.0027932527
76	0xbf0310cb	-0.511975
77	0xbf0a7026	-0.54077375
78	0xbe30448a	-0.17213646
79	0xbdb21e63	-0.08697202
80	0xbf2d5a0d	-0.6771553
81	0x3cf8850a	0.030336875
82	0x3ed422ce	0.41432804
83	0x3e941704	0.2892381
84	0x3ebac4e2	0.36478335
85	0xbebdfd76	-0.37107438
86	0x3e1e5302	0.15461352
87	0x3ea1f752	0.31634003
88	0xbe317fe2	-0.1733394
89	0x3cd1547d	0.025552982
90	0xbeaac8d8	-0.33356357
91	0xbf05e1a6	-0.5229744
92	0x3e76656e	0.2406213
93	0xbe46d3ee	-0.19416782
94	0x3ecb8310	0.3974843
95	0xbebcf1c5	-0.36903206
96	0x3f0aeead	0.5427044
97	0xbe84ad41	-0.25913432
98	0x3e103b7c	0.14085191
99	0xbef4f917	-0.4784629

sequential/dense_15/MatMul f4 [10, 10]
0	0xbe09b9d4	-0.13449794
1	0xbec8eb65	-0.39242092
2	0x3c45d900	0.012075663
3	0xbee97fab	-0.45605215
4	0xbe71db2e	-0.23618767
5	0xbe9270c9	-0.28601673
6	0xbeaa64bf	-0.33279988
7	0x3dc02b58	0.09383267
8	0xbefc13cd	-0.49233857
9	0x3eaf3a64	0.34224236
10	0x3ea59559	0.32340506
11	0x3e6f7025	0.23382623
12	0xbcfb27d1	-0.030658634
13	0xbc6abab2	-0.014326738
14	0x3ebd4a1d	0.36970606
15	0xbd2cf690	-0.042227328
16	0xbef31136	-0.47474068
17	0xbf146297	-0.57962936
18	0x3e8c8610	0.27446032
19	0xbe0e8b91	-0.13920428
20	0xbc178400	-0.00924778
21	0xbee58cba	-0.44833928
22	0x3d20df00	0.03927517
23	0xbe16b40a	-0.14717117
24	0xbe0f2f9e	-0.13983008
25	0xbda372c8	-0.07980877
26	0xbb8ed800	-0.0043592453
27	0xbe22676e	-0.15859768
28	0xbe6ce1b0	-0.23132968
29	0x3d40e170	0.047089994
30	0xbdf6717a	-0.12033363
31	0xbd8aef38	-0.067839086
32	0xbed852e0	-0.4225073
33	0xbe235d62	-0.15953591
34	0xbefd8d94	-0.49522078
35	0x3df6ad20	0.1204474
36	0x3e71f3d5	0.23628171
37	0x3e632b62	0.22184518
38	0x3e72a0f6	0.23694214
39	0xbea27d98	-0.31736445
40	0x3df6010f	0.12011921
41	0xbeeb5947	-0.4596655
42	0xbdbaea65	-0.091267385
43	0x3e343567	0.17598496
44	0x3e74501f	0.23858689
45	0xbd8c0ad8	-0.06838006
46	0xbde11427	-0.10990172
47	0xbf38285b	-0.7193658
48	0x3d3c5307	0.04597762
49	0xbec2f1a0	-0.3807497
50	0xbf2396b1	-0.6390181
51	0xbedb5ede	-0.42845815
52	0xbd1b2718	-0.03787908
53	0x3e53d0b1	0.20685078
54	0xbee5d36b	-0.44887862
55	0xbdcb5590	-0.09928429
56	0x3e84b1d0	0.2591691
57	0xbef26456	-0.47342175
58	0x3e72aa4b	0.23697774
59	0xbe98603d	-0.29760924
60	0x3e99824e	0.29982227
61	0x3e739308	0.23786557
62	0xbeb4a2e8	-0.35280538
63	0x3eceaa7a	0.40364438
64	0xbde1eb7c	-0.11031243
65	0x3ee0f926	0.43940085
66	0xbed2c5a4	-0.41166413
67	0xbd4ac6bd	-0.049505938
68	0xbbceec1f	-0.006314769
69	0x3e21faf1	0.15818383
70	0x3def9a99	0.11699409
71	0x3eaaaaaa	0.3333333
72	0xbed3d48f	-0.41373107
73	0x3dbf019a	0.09326477
74	0x3ca49bd6	0.02009384
75	0x3e6d7bf8	0.23191822
76	0x3ef50ab7	0.47859737
77	0xbd1e38be	-0.038628332
78	0x3d5df95a	0.05419288
79	0xbd3e6a61	-0.04648817
80	0x3e96ff24	0.29491532
81	0xbcc22040	-0.023697019
82	0xbe78e9e8	-0.24307978
83	0xbed5ed95	-0.41782823
84	0xbd7efa70	-0.062250555
85	0x3ee9a6a8	0.4563496
86	0xbeae26fa	-0.34014112
87	0xbeeda4f8	-0.46414924
88	0x3ee879fc	0.45405567
89	0x3ecac3a2	0.3960238
90	0xbea01145	-0.31263176
91	0xbdfe295c	-0.124102324
92	0xbeb90c63	-0.36142263
93	0xbebd916a	-0.37025005
94	0x3ee3f9a8	0.4452641
95	0xbe2cdf2a	-0.16882005
96	0x3e7fd373	0.24983005
97	0x3e325750	0.1741612
98	0x3d9d1f15	0.07671944
99	0xbd801034	-0.062530905

sequential/dense_16/MatMul f4 [10, 10]
0	0x3e29af44	0.16570765
1	0xbef872c9	-0.48525074
2	0xbe2ada52	-0.16684845
3	0x3e10ce31	0.14141156
4	0xbdcd36b2	-0.10020198
5	0xbdaf4707	-0.08558469
6	0x3dfe0493	0.12403216
7	0x3dd19d54	0.10235086
8	0xbea792e6	-0.32729262
9	0xbdd6d9fc	-0.10490796
10	0xbd5900a0	-0.05297911
11	0x3ef63981	0.48090747
12	0x3e4ca5d4	0.19985133
13	0xbee8dee1	-0.45482543
14	0x3ec57712	0.38567406
15	0x3eba86f0	0.36431074
16	0xbf1c2a46	-0.61002004
17	0xbe4c3ff1	-0.19946267
18	0xbe878767	-0.2647049
19	0x3efe08d8	0.49616122
20	0xbe48d208	-0.1961137
21	0x3eba4111	0.36377767
22	0x3db2afd0	0.0872494
23	0xbf06e236	-0.5268892
24	0x3ef400f9	0.47656992
25	0xbe08a41a	-0.1334385
26	0x3f11128b	0.5666892
27	0xbd8d282f	-0.0689243
28	0x3c52d540	0.012868226
29	0xbda65262	-0.08121182
30	0x3eba8644	0.36430562
31	0x3e7b40c3	0.24536423
32	0xbec4bd4c	-0.38425672
33	0x3ef100f7	0.4707105
34	0x3e55f57d	0.20894428
35	0x3e4d8c1d	0.2007298
36	0xbefcb432	-0.49356228
37	0x3ea4d5e1	0.32194427
38	0x3dead308	0.11466032
39	0x3ec5cdcf	0.38633582
40	0xbf00d9f3	-0.50332564
41	0x3e85f370	0.2616229
42	0x3f02791c	0.5096605
43	0xbea53920	-0.32270145
44	0xbeee77ff	-0.46575925
45	0xbf065ed1	-0.5248843
46	0xbe68fca0	-0.22752619
47	0xbec0431a	-0.37551194
48	0x3ed825f2	0.4221645
49	0x3e42de3c	0.19030088
50	0x3da57b30	0.08080137
51	0xbf10d370	-0.5657263
52	0xbedc66db	-0.43047222
53	0xbe92e946	-0.28693599
54	0xbf3c7df8	-0.73629713
55	0x3ea3eb23	0.32015333
56	0x3e7c6fc6	0.24652013
57	0x3edd897d	0.43268958
58	0x3ebf90aa	0.37415057
59	0xbc8be403	-0.017076498
60	0xbcc303e0	-0.023805559
61	0x3ed4b7fd	0.41546622
62	0x3dccbaa0	0.099965334
63	0xbe255a1d	-0.16147657
64	0x3e7044cb	0.23463742
65	0xbeab5f7d	-0.3347129
66	0xbe8b832b	-0.2724851
67	0x3d2c8d80	0.042127132
68	0xbe10b930	-0.14133143
69	0xbededc9f	-0.43527696
70	0x3d67d250	0.056597054
71	0xbeb6bb9f	-0.3569002
72	0xbf05d239	-0.522739
73	0x3ed6a3d2	0.4192186
74	0x3e89ed2b	0.26938757
75	0xbede4d7c	-0.4341849
76	0xbec3649b	-0.38162693
77	0x3eaccdc7	0.33750746
78	0x3e3c6730	0.18398738
79	0x3e0dece9	0.13859905
80	0xbefbfde9	-0.49217156
81	0xbedffa67	-0.4374573
82	0x3e35c060	0.17749166
83	0xbf0b565b	-0.54428643
84	0xbe3d27c8	-0.18472207
85	0xbe036d22	-0.128346
86	0x3e9932d4	0.2992159
87	0x3ec0240b	0.375275
88	0x3eceb70e	0.40374035
89	0xbed42bf6	-0.4143979
90	0x3efd8ed0	0.4952302
91	0xbeb4349e	-0.35196394
92	0xbe9629ff	-0.29328915
93	0x3dc57760	0.096419096
94	0x3d85f840	0.065414906
95	0xbe710920	-0.23538637
96	0xbe37dc4c	-0.1795513
97	0xbe3e7a70	-0.18601394
98	0xbf027f47	-0.5097546
99	0x3db13490	0.086526036
